…
2022-06-25 01:45:58,119   INFO  load 10591 construction_vehicle database infos
2022-06-25 01:45:58,119   INFO  load 102093 barrier database infos
2022-06-25 01:45:58,119   INFO  load 8055 motorcycle database infos
2022-06-25 01:45:58,119   INFO  load 7533 bicycle database infos
2022-06-25 01:45:58,119   INFO  load 11622 bus database infos
2022-06-25 01:45:58,119   INFO  load 18104 trailer database infos
2022-06-25 01:45:58,202   INFO  model structure: PillarNet(
  (reader): Identity()
  (backbone): SpMiddlePillarEncoder18(
    (pillar_pooling1): PillarMaxPooling(
      (groups): PillarQueryAndGroup()
      (shared_mlps): Sequential(
        (0): Linear(in_features=8, out_features=32, bias=False)
        (1): BatchNorm1d(32, eps=0.001, momentum=0.01, affine=True, track_running_stats=True)
        (2): ReLU()
      )
    )
    (conv1): SparseSequential(
      (0): Sparse2DBasicBlockV(
        (conv0): SparseSequential(
          (0): SubMConv2d(32, 32, kernel_size=[3, 3], stride=[1, 1], padding=[1, 1], dilation=[1, 1], output_padding=[0, 0], algo=ConvAlgo.MaskImplicitGemm)
          (1): BatchNorm1d(32, eps=0.001, momentum=0.01, affine=True, track_running_stats=True)
        )
        (conv1): SparseSequential(
          (0): SubMConv2d(32, 32, kernel_size=[3, 3], stride=[1, 1], padding=[1, 1], dilation=[1, 1], output_padding=[0, 0], algo=ConvAlgo.MaskImplicitGemm)
          (1): BatchNorm1d(32, eps=0.001, momentum=0.01, affine=True, track_running_stats=True)
        )
        (conv2): SparseSequential(
          (0): SubMConv2d(32, 32, kernel_size=[3, 3], stride=[1, 1], padding=[1, 1], dilation=[1, 1], output_padding=[0, 0], algo=ConvAlgo.MaskImplicitGemm)
          (1): BatchNorm1d(32, eps=0.001, momentum=0.01, affine=True, track_running_stats=True)
        )
        (relu): ReLU()
      )
      (1): Sparse2DBasicBlock(
        (conv1): SparseSequential(
          (0): SubMConv2d(32, 32, kernel_size=[3, 3], stride=[1, 1], padding=[1, 1], dilation=[1, 1], output_padding=[0, 0], algo=ConvAlgo.MaskImplicitGemm)
          (1): BatchNorm1d(32, eps=0.001, momentum=0.01, affine=True, track_running_stats=True)
        )
        (conv2): SparseSequential(
          (0): SubMConv2d(32, 32, kernel_size=[3, 3], stride=[1, 1], padding=[1, 1], dilation=[1, 1], output_padding=[0, 0], algo=ConvAlgo.MaskImplicitGemm)
          (1): BatchNorm1d(32, eps=0.001, momentum=0.01, affine=True, track_running_stats=True)
        )
        (relu): ReLU()
      )
    )
    (conv2): SparseSequential(
      (0): SparseConv2d(32, 64, kernel_size=[3, 3], stride=[2, 2], padding=[1, 1], dilation=[1, 1], output_padding=[0, 0], bias=False, algo=ConvAlgo.MaskImplicitGemm)
      (1): BatchNorm1d(64, eps=0.001, momentum=0.01, affine=True, track_running_stats=True)
      (2): ReLU()
      (3): Sparse2DBasicBlock(
        (conv1): SparseSequential(
          (0): SubMConv2d(64, 64, kernel_size=[3, 3], stride=[1, 1], padding=[1, 1], dilation=[1, 1], output_padding=[0, 0], algo=ConvAlgo.MaskImplicitGemm)
          (1): BatchNorm1d(64, eps=0.001, momentum=0.01, affine=True, track_running_stats=True)
        )
        (conv2): SparseSequential(
          (0): SubMConv2d(64, 64, kernel_size=[3, 3], stride=[1, 1], padding=[1, 1], dilation=[1, 1], output_padding=[0, 0], algo=ConvAlgo.MaskImplicitGemm)
          (1): BatchNorm1d(64, eps=0.001, momentum=0.01, affine=True, track_running_stats=True)
        )
        (relu): ReLU()
      )
      (4): Sparse2DBasicBlock(
        (conv1): SparseSequential(
          (0): SubMConv2d(64, 64, kernel_size=[3, 3], stride=[1, 1], padding=[1, 1], dilation=[1, 1], output_padding=[0, 0], algo=ConvAlgo.MaskImplicitGemm)
          (1): BatchNorm1d(64, eps=0.001, momentum=0.01, affine=True, track_running_stats=True)
        )
        (conv2): SparseSequential(
          (0): SubMConv2d(64, 64, kernel_size=[3, 3], stride=[1, 1], padding=[1, 1], dilation=[1, 1], output_padding=[0, 0], algo=ConvAlgo.MaskImplicitGemm)
          (1): BatchNorm1d(64, eps=0.001, momentum=0.01, affine=True, track_running_stats=True)
        )
        (relu): ReLU()
      )
    )
    (conv3): SparseSequential(
      (0): SparseConv2d(64, 128, kernel_size=[3, 3], stride=[2, 2], padding=[1, 1], dilation=[1, 1], output_padding=[0, 0], bias=False, algo=ConvAlgo.MaskImplicitGemm)
      (1): BatchNorm1d(128, eps=0.001, momentum=0.01, affine=True, track_running_stats=True)
      (2): ReLU()
      (3): Sparse2DBasicBlock(
        (conv1): SparseSequential(
          (0): SubMConv2d(128, 128, kernel_size=[3, 3], stride=[1, 1], padding=[1, 1], dilation=[1, 1], output_padding=[0, 0], algo=ConvAlgo.MaskImplicitGemm)
          (1): BatchNorm1d(128, eps=0.001, momentum=0.01, affine=True, track_running_stats=True)
        )
        (conv2): SparseSequential(
          (0): SubMConv2d(128, 128, kernel_size=[3, 3], stride=[1, 1], padding=[1, 1], dilation=[1, 1], output_padding=[0, 0], algo=ConvAlgo.MaskImplicitGemm)
          (1): BatchNorm1d(128, eps=0.001, momentum=0.01, affine=True, track_running_stats=True)
        )
        (relu): ReLU()
      )
      (4): Sparse2DBasicBlock(
        (conv1): SparseSequential(
          (0): SubMConv2d(128, 128, kernel_size=[3, 3], stride=[1, 1], padding=[1, 1], dilation=[1, 1], output_padding=[0, 0], algo=ConvAlgo.MaskImplicitGemm)
          (1): BatchNorm1d(128, eps=0.001, momentum=0.01, affine=True, track_running_stats=True)
        )
        (conv2): SparseSequential(
          (0): SubMConv2d(128, 128, kernel_size=[3, 3], stride=[1, 1], padding=[1, 1], dilation=[1, 1], output_padding=[0, 0], algo=ConvAlgo.MaskImplicitGemm)
          (1): BatchNorm1d(128, eps=0.001, momentum=0.01, affine=True, track_running_stats=True)
        )
        (relu): ReLU()
      )
    )
    (conv4): SparseSequential(
      (0): SparseConv2d(128, 256, kernel_size=[3, 3], stride=[2, 2], padding=[1, 1], dilation=[1, 1], output_padding=[0, 0], bias=False, algo=ConvAlgo.MaskImplicitGemm)
      (1): BatchNorm1d(256, eps=0.001, momentum=0.01, affine=True, track_running_stats=True)
      (2): ReLU()
      (3): Sparse2DBasicBlock(
        (conv1): SparseSequential(
          (0): SubMConv2d(256, 256, kernel_size=[3, 3], stride=[1, 1], padding=[1, 1], dilation=[1, 1], output_padding=[0, 0], algo=ConvAlgo.MaskImplicitGemm)
          (1): BatchNorm1d(256, eps=0.001, momentum=0.01, affine=True, track_running_stats=True)
        )
        (conv2): SparseSequential(
          (0): SubMConv2d(256, 256, kernel_size=[3, 3], stride=[1, 1], padding=[1, 1], dilation=[1, 1], output_padding=[0, 0], algo=ConvAlgo.MaskImplicitGemm)
          (1): BatchNorm1d(256, eps=0.001, momentum=0.01, affine=True, track_running_stats=True)
        )
        (relu): ReLU()
      )
      (4): Sparse2DBasicBlock(
        (conv1): SparseSequential(
          (0): SubMConv2d(256, 256, kernel_size=[3, 3], stride=[1, 1], padding=[1, 1], dilation=[1, 1], output_padding=[0, 0], algo=ConvAlgo.MaskImplicitGemm)
          (1): BatchNorm1d(256, eps=0.001, momentum=0.01, affine=True, track_running_stats=True)
        )
        (conv2): SparseSequential(
          (0): SubMConv2d(256, 256, kernel_size=[3, 3], stride=[1, 1], padding=[1, 1], dilation=[1, 1], output_padding=[0, 0], algo=ConvAlgo.MaskImplicitGemm)
          (1): BatchNorm1d(256, eps=0.001, momentum=0.01, affine=True, track_running_stats=True)
        )
        (relu): ReLU()
      )
    )
    (conv5): Sequential(
      (0): Conv2d(256, 256, kernel_size=(3, 3), stride=(2, 2), padding=(1, 1), bias=False)
      (1): BatchNorm2d(256, eps=0.001, momentum=0.01, affine=True, track_running_stats=True)
      (2): ReLU()
      (3): Dense2DBasicBlock(
        (conv1): Sequential(
          (0): Conv2d(256, 256, kernel_size=(3, 3), stride=(1, 1), padding=(1, 1), bias=False)
          (1): BatchNorm2d(256, eps=0.001, momentum=0.01, affine=True, track_running_stats=True)
        )
        (conv2): Sequential(
          (0): Conv2d(256, 256, kernel_size=(3, 3), stride=(1, 1), padding=(1, 1), bias=False)
          (1): BatchNorm2d(256, eps=0.001, momentum=0.01, affine=True, track_running_stats=True)
        )
        (relu): ReLU()
      )
      (4): Dense2DBasicBlock(
        (conv1): Sequential(
          (0): Conv2d(256, 256, kernel_size=(3, 3), stride=(1, 1), padding=(1, 1), bias=False)
          (1): BatchNorm2d(256, eps=0.001, momentum=0.01, affine=True, track_running_stats=True)
        )
        (conv2): Sequential(
          (0): Conv2d(256, 256, kernel_size=(3, 3), stride=(1, 1), padding=(1, 1), bias=False)
          (1): BatchNorm2d(256, eps=0.001, momentum=0.01, affine=True, track_running_stats=True)
        )
        (relu): ReLU()
      )
    )
  )
  (neck): RPNV2(
    (block_5): Sequential(
      (0): ZeroPad2d(padding=(1, 1, 1, 1), value=0.0)
      (1): Conv2d(256, 256, kernel_size=(3, 3), stride=(1, 1), bias=False)
      (2): BatchNorm2d(256, eps=0.001, momentum=0.01, affine=True, track_running_stats=True)
      (3): ReLU()
      (4): Conv2d(256, 256, kernel_size=(3, 3), stride=(1, 1), padding=(1, 1), bias=False)
      (5): BatchNorm2d(256, eps=0.001, momentum=0.01, affine=True, track_running_stats=True)
      (6): ReLU()
      (7): Conv2d(256, 256, kernel_size=(3, 3), stride=(1, 1), padding=(1, 1), bias=False)
      (8): BatchNorm2d(256, eps=0.001, momentum=0.01, affine=True, track_running_stats=True)
      (9): ReLU()
      (10): Conv2d(256, 256, kernel_size=(3, 3), stride=(1, 1), padding=(1, 1), bias=False)
      (11): BatchNorm2d(256, eps=0.001, momentum=0.01, affine=True, track_running_stats=True)
      (12): ReLU()
      (13): Conv2d(256, 256, kernel_size=(3, 3), stride=(1, 1), padding=(1, 1), bias=False)
      (14): BatchNorm2d(256, eps=0.001, momentum=0.01, affine=True, track_running_stats=True)
      (15): ReLU()
      (16): Conv2d(256, 256, kernel_size=(3, 3), stride=(1, 1), padding=(1, 1), bias=False)
      (17): BatchNorm2d(256, eps=0.001, momentum=0.01, affine=True, track_running_stats=True)
      (18): ReLU()
    )
    (deblock_5): Sequential(
      (0): ConvTranspose2d(256, 128, kernel_size=(2, 2), stride=(2, 2), bias=False)
      (1): BatchNorm2d(128, eps=0.001, momentum=0.01, affine=True, track_running_stats=True)
      (2): ReLU()
    )
    (deblock_4): Sequential(
      (0): ZeroPad2d(padding=(1, 1, 1, 1), value=0.0)
      (1): Conv2d(256, 128, kernel_size=(3, 3), stride=(1, 1), bias=False)
      (2): BatchNorm2d(128, eps=0.001, momentum=0.01, affine=True, track_running_stats=True)
      (3): ReLU()
    )
    (block_4): Sequential(
      (0): ZeroPad2d(padding=(1, 1, 1, 1), value=0.0)
      (1): Conv2d(256, 256, kernel_size=(3, 3), stride=(1, 1), bias=False)
      (2): BatchNorm2d(256, eps=0.001, momentum=0.01, affine=True, track_running_stats=True)
      (3): ReLU()
      (4): Conv2d(256, 256, kernel_size=(3, 3), stride=(1, 1), padding=(1, 1), bias=False)
      (5): BatchNorm2d(256, eps=0.001, momentum=0.01, affine=True, track_running_stats=True)
      (6): ReLU()
      (7): Conv2d(256, 256, kernel_size=(3, 3), stride=(1, 1), padding=(1, 1), bias=False)
      (8): BatchNorm2d(256, eps=0.001, momentum=0.01, affine=True, track_running_stats=True)
      (9): ReLU()
      (10): Conv2d(256, 256, kernel_size=(3, 3), stride=(1, 1), padding=(1, 1), bias=False)
      (11): BatchNorm2d(256, eps=0.001, momentum=0.01, affine=True, track_running_stats=True)
      (12): ReLU()
      (13): Conv2d(256, 256, kernel_size=(3, 3), stride=(1, 1), padding=(1, 1), bias=False)
      (14): BatchNorm2d(256, eps=0.001, momentum=0.01, affine=True, track_running_stats=True)
      (15): ReLU()
      (16): Conv2d(256, 256, kernel_size=(3, 3), stride=(1, 1), padding=(1, 1), bias=False)
      (17): BatchNorm2d(256, eps=0.001, momentum=0.01, affine=True, track_running_stats=True)
      (18): ReLU()
    )
  )
  (bbox_head): CenterHead(
    (crit): FastFocalLoss()
    (crit_reg): RegLoss()
    (crit_iou): IouLoss()
    (shared_conv): Sequential(
      (0): Conv2d(256, 64, kernel_size=(3, 3), stride=(1, 1), padding=(1, 1))
      (1): BatchNorm2d(64, eps=1e-05, momentum=0.1, affine=True, track_running_stats=True)
      (2): ReLU(inplace=True)
    )
    (tasks): ModuleList(
      (0): SepHead(
        (reg): Sequential(
          (0): Conv2d(64, 64, kernel_size=(3, 3), stride=(1, 1), padding=(1, 1))
          (1): BatchNorm2d(64, eps=1e-05, momentum=0.1, affine=True, track_running_stats=True)
          (2): ReLU()
          (3): Conv2d(64, 2, kernel_size=(3, 3), stride=(1, 1), padding=(1, 1))
        )
        (height): Sequential(
          (0): Conv2d(64, 64, kernel_size=(3, 3), stride=(1, 1), padding=(1, 1))
          (1): BatchNorm2d(64, eps=1e-05, momentum=0.1, affine=True, track_running_stats=True)
          (2): ReLU()
          (3): Conv2d(64, 1, kernel_size=(3, 3), stride=(1, 1), padding=(1, 1))
        )
        (dim): Sequential(
          (0): Conv2d(64, 64, kernel_size=(3, 3), stride=(1, 1), padding=(1, 1))
          (1): BatchNorm2d(64, eps=1e-05, momentum=0.1, affine=True, track_running_stats=True)
          (2): ReLU()
          (3): Conv2d(64, 3, kernel_size=(3, 3), stride=(1, 1), padding=(1, 1))
        )
        (rot): Sequential(
          (0): Conv2d(64, 64, kernel_size=(3, 3), stride=(1, 1), padding=(1, 1))
          (1): BatchNorm2d(64, eps=1e-05, momentum=0.1, affine=True, track_running_stats=True)
          (2): ReLU()
          (3): Conv2d(64, 2, kernel_size=(3, 3), stride=(1, 1), padding=(1, 1))
        )
        (vel): Sequential(
          (0): Conv2d(64, 64, kernel_size=(3, 3), stride=(1, 1), padding=(1, 1))
          (1): BatchNorm2d(64, eps=1e-05, momentum=0.1, affine=True, track_running_stats=True)
          (2): ReLU()
          (3): Conv2d(64, 2, kernel_size=(3, 3), stride=(1, 1), padding=(1, 1))
        )
        (iou): Sequential(
          (0): Conv2d(64, 64, kernel_size=(3, 3), stride=(1, 1), padding=(1, 1))
          (1): BatchNorm2d(64, eps=1e-05, momentum=0.1, affine=True, track_running_stats=True)
          (2): ReLU()
          (3): Conv2d(64, 1, kernel_size=(3, 3), stride=(1, 1), padding=(1, 1))
        )
        (hm): Sequential(
          (0): Conv2d(64, 64, kernel_size=(3, 3), stride=(1, 1), padding=(1, 1))
          (1): BatchNorm2d(64, eps=1e-05, momentum=0.1, affine=True, track_running_stats=True)
          (2): ReLU()
          (3): Conv2d(64, 1, kernel_size=(3, 3), stride=(1, 1), padding=(1, 1))
        )
      )
      (1): SepHead(
        (reg): Sequential(
          (0): Conv2d(64, 64, kernel_size=(3, 3), stride=(1, 1), padding=(1, 1))
          (1): BatchNorm2d(64, eps=1e-05, momentum=0.1, affine=True, track_running_stats=True)
          (2): ReLU()
          (3): Conv2d(64, 2, kernel_size=(3, 3), stride=(1, 1), padding=(1, 1))
        )
        (height): Sequential(
          (0): Conv2d(64, 64, kernel_size=(3, 3), stride=(1, 1), padding=(1, 1))
          (1): BatchNorm2d(64, eps=1e-05, momentum=0.1, affine=True, track_running_stats=True)
          (2): ReLU()
          (3): Conv2d(64, 1, kernel_size=(3, 3), stride=(1, 1), padding=(1, 1))
        )
        (dim): Sequential(
          (0): Conv2d(64, 64, kernel_size=(3, 3), stride=(1, 1), padding=(1, 1))
          (1): BatchNorm2d(64, eps=1e-05, momentum=0.1, affine=True, track_running_stats=True)
          (2): ReLU()
          (3): Conv2d(64, 3, kernel_size=(3, 3), stride=(1, 1), padding=(1, 1))
        )
        (rot): Sequential(
          (0): Conv2d(64, 64, kernel_size=(3, 3), stride=(1, 1), padding=(1, 1))
          (1): BatchNorm2d(64, eps=1e-05, momentum=0.1, affine=True, track_running_stats=True)
          (2): ReLU()
          (3): Conv2d(64, 2, kernel_size=(3, 3), stride=(1, 1), padding=(1, 1))
        )
        (vel): Sequential(
          (0): Conv2d(64, 64, kernel_size=(3, 3), stride=(1, 1), padding=(1, 1))
          (1): BatchNorm2d(64, eps=1e-05, momentum=0.1, affine=True, track_running_stats=True)
          (2): ReLU()
          (3): Conv2d(64, 2, kernel_size=(3, 3), stride=(1, 1), padding=(1, 1))
        )
        (iou): Sequential(
          (0): Conv2d(64, 64, kernel_size=(3, 3), stride=(1, 1), padding=(1, 1))
          (1): BatchNorm2d(64, eps=1e-05, momentum=0.1, affine=True, track_running_stats=True)
          (2): ReLU()
          (3): Conv2d(64, 1, kernel_size=(3, 3), stride=(1, 1), padding=(1, 1))
        )
        (hm): Sequential(
          (0): Conv2d(64, 64, kernel_size=(3, 3), stride=(1, 1), padding=(1, 1))
          (1): BatchNorm2d(64, eps=1e-05, momentum=0.1, affine=True, track_running_stats=True)
          (2): ReLU()
          (3): Conv2d(64, 2, kernel_size=(3, 3), stride=(1, 1), padding=(1, 1))
        )
      )
      (2): SepHead(
        (reg): Sequential(
          (0): Conv2d(64, 64, kernel_size=(3, 3), stride=(1, 1), padding=(1, 1))
          (1): BatchNorm2d(64, eps=1e-05, momentum=0.1, affine=True, track_running_stats=True)
          (2): ReLU()
          (3): Conv2d(64, 2, kernel_size=(3, 3), stride=(1, 1), padding=(1, 1))
        )
        (height): Sequential(
          (0): Conv2d(64, 64, kernel_size=(3, 3), stride=(1, 1), padding=(1, 1))
          (1): BatchNorm2d(64, eps=1e-05, momentum=0.1, affine=True, track_running_stats=True)
          (2): ReLU()
          (3): Conv2d(64, 1, kernel_size=(3, 3), stride=(1, 1), padding=(1, 1))
        )
        (dim): Sequential(
          (0): Conv2d(64, 64, kernel_size=(3, 3), stride=(1, 1), padding=(1, 1))
          (1): BatchNorm2d(64, eps=1e-05, momentum=0.1, affine=True, track_running_stats=True)
          (2): ReLU()
          (3): Conv2d(64, 3, kernel_size=(3, 3), stride=(1, 1), padding=(1, 1))
        )
        (rot): Sequential(
          (0): Conv2d(64, 64, kernel_size=(3, 3), stride=(1, 1), padding=(1, 1))
          (1): BatchNorm2d(64, eps=1e-05, momentum=0.1, affine=True, track_running_stats=True)
          (2): ReLU()
          (3): Conv2d(64, 2, kernel_size=(3, 3), stride=(1, 1), padding=(1, 1))
        )
        (vel): Sequential(
          (0): Conv2d(64, 64, kernel_size=(3, 3), stride=(1, 1), padding=(1, 1))
          (1): BatchNorm2d(64, eps=1e-05, momentum=0.1, affine=True, track_running_stats=True)
          (2): ReLU()
          (3): Conv2d(64, 2, kernel_size=(3, 3), stride=(1, 1), padding=(1, 1))
        )
        (iou): Sequential(
          (0): Conv2d(64, 64, kernel_size=(3, 3), stride=(1, 1), padding=(1, 1))
          (1): BatchNorm2d(64, eps=1e-05, momentum=0.1, affine=True, track_running_stats=True)
          (2): ReLU()
          (3): Conv2d(64, 1, kernel_size=(3, 3), stride=(1, 1), padding=(1, 1))
        )
        (hm): Sequential(
          (0): Conv2d(64, 64, kernel_size=(3, 3), stride=(1, 1), padding=(1, 1))
          (1): BatchNorm2d(64, eps=1e-05, momentum=0.1, affine=True, track_running_stats=True)
          (2): ReLU()
          (3): Conv2d(64, 2, kernel_size=(3, 3), stride=(1, 1), padding=(1, 1))
        )
      )
      (3): SepHead(
        (reg): Sequential(
          (0): Conv2d(64, 64, kernel_size=(3, 3), stride=(1, 1), padding=(1, 1))
          (1): BatchNorm2d(64, eps=1e-05, momentum=0.1, affine=True, track_running_stats=True)
          (2): ReLU()
          (3): Conv2d(64, 2, kernel_size=(3, 3), stride=(1, 1), padding=(1, 1))
        )
        (height): Sequential(
          (0): Conv2d(64, 64, kernel_size=(3, 3), stride=(1, 1), padding=(1, 1))
          (1): BatchNorm2d(64, eps=1e-05, momentum=0.1, affine=True, track_running_stats=True)
          (2): ReLU()
          (3): Conv2d(64, 1, kernel_size=(3, 3), stride=(1, 1), padding=(1, 1))
        )
        (dim): Sequential(
          (0): Conv2d(64, 64, kernel_size=(3, 3), stride=(1, 1), padding=(1, 1))
          (1): BatchNorm2d(64, eps=1e-05, momentum=0.1, affine=True, track_running_stats=True)
          (2): ReLU()
          (3): Conv2d(64, 3, kernel_size=(3, 3), stride=(1, 1), padding=(1, 1))
        )
        (rot): Sequential(
          (0): Conv2d(64, 64, kernel_size=(3, 3), stride=(1, 1), padding=(1, 1))
          (1): BatchNorm2d(64, eps=1e-05, momentum=0.1, affine=True, track_running_stats=True)
          (2): ReLU()
          (3): Conv2d(64, 2, kernel_size=(3, 3), stride=(1, 1), padding=(1, 1))
        )
        (vel): Sequential(
          (0): Conv2d(64, 64, kernel_size=(3, 3), stride=(1, 1), padding=(1, 1))
          (1): BatchNorm2d(64, eps=1e-05, momentum=0.1, affine=True, track_running_stats=True)
          (2): ReLU()
          (3): Conv2d(64, 2, kernel_size=(3, 3), stride=(1, 1), padding=(1, 1))
        )
        (iou): Sequential(
          (0): Conv2d(64, 64, kernel_size=(3, 3), stride=(1, 1), padding=(1, 1))
          (1): BatchNorm2d(64, eps=1e-05, momentum=0.1, affine=True, track_running_stats=True)
          (2): ReLU()
          (3): Conv2d(64, 1, kernel_size=(3, 3), stride=(1, 1), padding=(1, 1))
        )
        (hm): Sequential(
          (0): Conv2d(64, 64, kernel_size=(3, 3), stride=(1, 1), padding=(1, 1))
          (1): BatchNorm2d(64, eps=1e-05, momentum=0.1, affine=True, track_running_stats=True)
          (2): ReLU()
          (3): Conv2d(64, 1, kernel_size=(3, 3), stride=(1, 1), padding=(1, 1))
        )
      )
      (4): SepHead(
        (reg): Sequential(
          (0): Conv2d(64, 64, kernel_size=(3, 3), stride=(1, 1), padding=(1, 1))
          (1): BatchNorm2d(64, eps=1e-05, momentum=0.1, affine=True, track_running_stats=True)
          (2): ReLU()
          (3): Conv2d(64, 2, kernel_size=(3, 3), stride=(1, 1), padding=(1, 1))
        )
        (height): Sequential(
          (0): Conv2d(64, 64, kernel_size=(3, 3), stride=(1, 1), padding=(1, 1))
          (1): BatchNorm2d(64, eps=1e-05, momentum=0.1, affine=True, track_running_stats=True)
          (2): ReLU()
          (3): Conv2d(64, 1, kernel_size=(3, 3), stride=(1, 1), padding=(1, 1))
        )
        (dim): Sequential(
          (0): Conv2d(64, 64, kernel_size=(3, 3), stride=(1, 1), padding=(1, 1))
          (1): BatchNorm2d(64, eps=1e-05, momentum=0.1, affine=True, track_running_stats=True)
          (2): ReLU()
          (3): Conv2d(64, 3, kernel_size=(3, 3), stride=(1, 1), padding=(1, 1))
        )
        (rot): Sequential(
          (0): Conv2d(64, 64, kernel_size=(3, 3), stride=(1, 1), padding=(1, 1))
          (1): BatchNorm2d(64, eps=1e-05, momentum=0.1, affine=True, track_running_stats=True)
          (2): ReLU()
          (3): Conv2d(64, 2, kernel_size=(3, 3), stride=(1, 1), padding=(1, 1))
        )
        (vel): Sequential(
          (0): Conv2d(64, 64, kernel_size=(3, 3), stride=(1, 1), padding=(1, 1))
          (1): BatchNorm2d(64, eps=1e-05, momentum=0.1, affine=True, track_running_stats=True)
          (2): ReLU()
          (3): Conv2d(64, 2, kernel_size=(3, 3), stride=(1, 1), padding=(1, 1))
        )
        (iou): Sequential(
          (0): Conv2d(64, 64, kernel_size=(3, 3), stride=(1, 1), padding=(1, 1))
          (1): BatchNorm2d(64, eps=1e-05, momentum=0.1, affine=True, track_running_stats=True)
          (2): ReLU()
          (3): Conv2d(64, 1, kernel_size=(3, 3), stride=(1, 1), padding=(1, 1))
        )
        (hm): Sequential(
          (0): Conv2d(64, 64, kernel_size=(3, 3), stride=(1, 1), padding=(1, 1))
          (1): BatchNorm2d(64, eps=1e-05, momentum=0.1, affine=True, track_running_stats=True)
          (2): ReLU()
          (3): Conv2d(64, 2, kernel_size=(3, 3), stride=(1, 1), padding=(1, 1))
        )
      )
      (5): SepHead(
        (reg): Sequential(
          (0): Conv2d(64, 64, kernel_size=(3, 3), stride=(1, 1), padding=(1, 1))
          (1): BatchNorm2d(64, eps=1e-05, momentum=0.1, affine=True, track_running_stats=True)
          (2): ReLU()
          (3): Conv2d(64, 2, kernel_size=(3, 3), stride=(1, 1), padding=(1, 1))
        )
        (height): Sequential(
          (0): Conv2d(64, 64, kernel_size=(3, 3), stride=(1, 1), padding=(1, 1))
          (1): BatchNorm2d(64, eps=1e-05, momentum=0.1, affine=True, track_running_stats=True)
          (2): ReLU()
          (3): Conv2d(64, 1, kernel_size=(3, 3), stride=(1, 1), padding=(1, 1))
        )
        (dim): Sequential(
          (0): Conv2d(64, 64, kernel_size=(3, 3), stride=(1, 1), padding=(1, 1))
          (1): BatchNorm2d(64, eps=1e-05, momentum=0.1, affine=True, track_running_stats=True)
          (2): ReLU()
          (3): Conv2d(64, 3, kernel_size=(3, 3), stride=(1, 1), padding=(1, 1))
        )
        (rot): Sequential(
          (0): Conv2d(64, 64, kernel_size=(3, 3), stride=(1, 1), padding=(1, 1))
          (1): BatchNorm2d(64, eps=1e-05, momentum=0.1, affine=True, track_running_stats=True)
          (2): ReLU()
          (3): Conv2d(64, 2, kernel_size=(3, 3), stride=(1, 1), padding=(1, 1))
        )
        (vel): Sequential(
          (0): Conv2d(64, 64, kernel_size=(3, 3), stride=(1, 1), padding=(1, 1))
          (1): BatchNorm2d(64, eps=1e-05, momentum=0.1, affine=True, track_running_stats=True)
          (2): ReLU()
          (3): Conv2d(64, 2, kernel_size=(3, 3), stride=(1, 1), padding=(1, 1))
        )
        (iou): Sequential(
          (0): Conv2d(64, 64, kernel_size=(3, 3), stride=(1, 1), padding=(1, 1))
          (1): BatchNorm2d(64, eps=1e-05, momentum=0.1, affine=True, track_running_stats=True)
          (2): ReLU()
          (3): Conv2d(64, 1, kernel_size=(3, 3), stride=(1, 1), padding=(1, 1))
        )
        (hm): Sequential(
          (0): Conv2d(64, 64, kernel_size=(3, 3), stride=(1, 1), padding=(1, 1))
          (1): BatchNorm2d(64, eps=1e-05, momentum=0.1, affine=True, track_running_stats=True)
          (2): ReLU()
          (3): Conv2d(64, 2, kernel_size=(3, 3), stride=(1, 1), padding=(1, 1))
        )
      )
    )
  )
)
2022-06-25 01:45:58,203   INFO  Start running, host: sgs@sgs-dl, work_dir: /home/sgs/PycharmProjects/FaultBB/work_dirs/nusc_centerpoint_pillarnet_h
2022-06-25 01:45:58,203   INFO  workflow: [('train', 1)], max: 20 epochs
2022-06-25 01:46:02,660   INFO  Distributed training: False
2022-06-25 01:46:02,660   INFO  torch.backends.cudnn.benchmark: False
…
